…
2020-08-14 01:43:39.619595: I tensorflow/core/common_runtime/gpu/gpu_device.cc:1115] Created TensorFlow device (/job:localhost/replica:0/task:0/device:GPU:1 with 22844 MB memory) -> physical GPU (device: 1, name: Quadro RTX 6000, pci bus id: 0000:b1:00.0, compute capability: 7.5)
2020-08-14 01:43:42.574087: I tensorflow/stream_executor/dso_loader.cc:152] successfully opened CUDA library libcublas.so.10.0 locally
Model: "sequential_1"
_________________________________________________________________
Layer (type)                 Output Shape              Param #   
=================================================================
embedding_1 (Embedding)      (None, 2620, 16)          389280    
_________________________________________________________________
conv1d_1 (Conv1D)            (None, 2620, 128)         10368     
_________________________________________________________________
dropout_1 (Dropout)          (None, 2620, 128)         0         
_________________________________________________________________
max_pooling1d_1 (MaxPooling1 (None, 524, 128)          0         
_________________________________________________________________
lstm_1 (LSTM)                (None, 10)                5560      
_________________________________________________________________
dense_1 (Dense)              (None, 3)                 33        
_________________________________________________________________
activation_1 (Activation)    (None, 3)                 0         
=================================================================
Total params: 405,241
Trainable params: 405,241
Non-trainable params: 0
_________________________________________________________________
None
Vocabulary size: 24330
Train on 32243 samples, validate on 8061 samples
Epoch 1/10

   30/32243 [..............................] - ETA: 1:06:55 - loss: 1.0948 - accuracy: 0.4000
   60/32243 [..............................] - ETA: 41:14 - loss: 1.0927 - accuracy: 0.3833  
…
